…
=====] - 1s 0us/step\n","Model: \"functional_1\"\n","__________________________________________________________________________________________________\n","Layer (type)                    Output Shape         Param #     Connected to                     \n","==================================================================================================\n","input_1 (InputLayer)            [(None, 71, 71, 3)]  0                                            \n","__________________________________________________________________________________________________\n","block1_conv1 (Conv2D)           (None, 35, 35, 32)   864         input_1[0][0]                    \n","__________________________________________________________________________________________________\n","block1_conv1_bn (BatchNormaliza (None, 35, 35, 32)   128         block1_conv1[0][0]               \n","__________________________________________________________________________________________________\n","block1_conv1_act (Activation)   (None, 35, 35, 32)   0           block1_conv1_bn[0][0]            \n","__________________________________________________________________________________________________\n","block1_conv2 (Conv2D)           (None, 33, 33, 64)   18432       block1_conv1_act[0][0]           \n","__________________________________________________________________________________________________\n","block1_conv2_bn (BatchNormaliza (None, 33, 33, 64)   256         block1_conv2[0][0]               \n","__________________________________________________________________________________________________\n","block1_conv2_act (Activation)   (None, 33, 33, 64)   0           block1_conv2_bn[0][0]            \n","__________________________________________________________________________________________________\n","block2_sepconv1 (SeparableConv2 (None, 33, 33, 128)  8768        block1_conv2_act[0][0]           \n","__________________________________________________________________________________________________\n","block2_sepconv1_bn (BatchNormal (None, 33, 33, 128)  512         block2_sepconv1[0][0]            \n","__________________________________________________________________________________________________\n","block2_sepconv2_act (Activation (None, 33, 33, 128)  0           block2_sepconv1_bn[0][0]         \n","__________________________________________________________________________________________________\n","block2_sepconv2 (SeparableConv2 (None, 33, 33, 128)  17536       block2_sepconv2_act[0][0]        \n","__________________________________________________________________________________________________\n","block2_sepconv2_bn (BatchNormal (None, 33, 33, 128)  512         block2_sepconv2[0][0]            \n","__________________________________________________________________________________________________\n","conv2d (Conv2D)                 (None, 17, 17, 128)  8192        block1_conv2_act[0][0]           \n","__________________________________________________________________________________________________\n","block2_pool (MaxPooling2D)      (None, 17, 17, 128)  0           block2_sepconv2_bn[0][0]         \n","__________________________________________________________________________________________________\n","batch_normalization (BatchNorma (None, 17, 17, 128)  512         conv2d[0][0]                     \n","__________________________________________________________________________________________________\n","add (Add)                       (None, 17, 17, 128)  0           block2_pool[0][0]                \n","                                                                 batch_normalization[0][0]        \n","__________________________________________________________________________________________________\n","block3_sepconv1_act (Activation (None, 17, 17, 128)  0           add[0][0]                        \n","__________________________________________________________________________________________________\n","block3_sepconv1 (SeparableConv2 (None, 17, 17, 256)  33920       block3_sepconv1_act[0][0]        \n","__________________________________________________________________________________________________\n","block3_sepconv1_bn (BatchNormal (None, 17, 17, 256)  1024        block3_sepconv1[0][0]            \n","__________________________________________________________________________________________________\n","block3_sepconv2_act (Activation (None, 17, 17, 256)  0           block3_sepconv1_bn[0][0]         \n","__________________________________________________________________________________________________\n","block3_sepconv2 (SeparableConv2 (None, 17, 17, 256)  67840       block3_sepconv2_act[0][0]        \n","__________________________________________________________________________________________________\n","block3_sepconv2_bn (BatchNormal (None, 17, 17, 256)  1024        block3_sepconv2[0][0]            \n","__________________________________________________________________________________________________\n","conv2d_1 (Conv2D)               (None, 9, 9, 256)    32768       add[0][0]                        \n","__________________________________________________________________________________________________\n","block3_pool (MaxPooling2D)      (None, 9, 9, 256)    0           block3_sepconv2_bn[0][0]         \n","__________________________________________________________________________________________________\n","batch_normalization_1 (BatchNor (None, 9, 9, 256)    1024        conv2d_1[0][0]                   \n","__________________________________________________________________________________________________\n","add_1 (Add)                     (None, 9, 9, 256)    0           block3_pool[0][0]                \n","                                                                 batch_normalization_1[0][0]      \n","__________________________________________________________________________________________________\n","block4_sepconv1_act (Activation (None, 9, 9, 256)    0           add_1[0][0]                      \n","__________________________________________________________________________________________________\n","block4_sepconv1 (SeparableConv2 (None, 9, 9, 728)    188672      block4_sepconv1_act[0][0]        \n","__________________________________________________________________________________________________\n","block4_sepconv1_bn (BatchNormal (None, 9, 9, 728)    2912        block4_sepconv1[0][0]            \n","__________________________________________________________________________________________________\n","block4_sepconv2_act (Activation (None, 9, 9, 728)    0           block4_sepconv1_bn[0][0]         \n","__________________________________________________________________________________________________\n","block4_sepconv2 (SeparableConv2 (None, 9, 9, 728)    536536      block4_sepconv2_act[0][0]        \n","__________________________________________________________________________________________________\n","block4_sepconv2_bn (BatchNormal (None, 9, 9, 728)    2912        block4_sepconv2[0][0]            \n","__________________________________________________________________________________________________\n","conv2d_2 (Conv2D)               (None, 5, 5, 728)    186368      add_1[0][0]                      \n","__________________________________________________________________________________________________\n","block4_pool (MaxPooling2D)      (None, 5, 5, 728)    0           block4_sepconv2_bn[0][0]         \n","__________________________________________________________________________________________________\n","batch_normalization_2 (BatchNor (None, 5, 5, 728)    2912        conv2d_2[0][0]                   \n","__________________________________________________________________________________________________\n","add_2 (Add)                     (None, 5, 5, 728)    0           block4_pool[0][0]                \n","                                                                 batch_normalization_2[0][0]      \n","__________________________________________________________________________________________________\n","block5_sepconv1_act (Activation (None, 5, 5, 728)    0           add_2[0][0]                      \n","__________________________________________________________________________________________________\n","block5_sepconv1 (SeparableConv2 (None, 5, 5, 728)    536536      block5_sepconv1_act[0][0]        \n","__________________________________________________________________________________________________\n","block5_sepconv1_bn (BatchNormal (None, 5, 5, 728)    2912        block5_sepconv1[0][0]            \n","__________________________________________________________________________________________________\n","block5_sepconv2_act (Activation (None, 5, 5, 728)    0           block5_sepconv1_bn[0][0]         \n","__________________________________________________________________________________________________\n","block5_sepconv2 (SeparableConv2 (None, 5, 5, 728)    536536      block5_sepconv2_act[0][0]        \n","__________________________________________________________________________________________________\n","block5_sepconv2_bn (BatchNormal (None, 5, 5, 728)    2912        block5_sepconv2[0][0]            \n","__________________________________________________________________________________________________\n","block5_sepconv3_act (Activation (None, 5, 5, 728)    0           block5_sepconv2_bn[0][0]         \n","__________________________________________________________________________________________________\n","block5_sepconv3 (SeparableConv2 (None, 5, 5, 728)    536536      block5_sepconv3_act[0][0]        \n","__________________________________________________________________________________________________\n","block5_sepconv3_bn (BatchNormal (None, 5, 5, 728)    2912        block5_sepconv3[0][0]            \n","__________________________________________________________________________________________________\n","add_3 (Add)                     (None, 5, 5, 728)    0           block5_sepconv3_bn[0][0]         \n","                                                                 add_2[0][0]                      \n","__________________________________________________________________________________________________\n","block6_sepconv1_act (Activation (None, 5, 5, 728)    0           add_3[0][0]                      \n","__________________________________________________________________________________________________\n","block6_sepconv1 (SeparableConv2 (None, 5, 5, 728)    536536      block6_sepconv1_act[0][0]        \n","__________________________________________________________________________________________________\n","block6_sepconv1_bn (BatchNormal (None, 5, 5, 728)    2912        block6_sepconv1[0][0]            \n","__________________________________________________________________________________________________\n","block6_sepconv2_act (Activation (None, 5, 5, 728)    0           block6_sepconv1_bn[0][0]         \n","__________________________________________________________________________________________________\n","block6_sepconv2 (SeparableConv2 (None, 5, 5, 728)    536536      block6_sepconv2_act[0][0]        \n","__________________________________________________________________________________________________\n","block6_sepconv2_bn (BatchNormal (None, 5, 5, 728)    2912        block6_sepconv2[0][0]            \n","__________________________________________________________________________________________________\n","block6_sepconv3_act (Activation (None, 5, 5, 728)    0           block6_sepconv2_bn[0][0]         \n","__________________________________________________________________________________________________\n","block6_sepconv3 (SeparableConv2 (None, 5, 5, 728)    536536      block6_sepconv3_act[0][0]        \n","__________________________________________________________________________________________________\n","block6_sepconv3_bn (BatchNormal (None, 5, 5, 728)    2912        block6_sepconv3[0][0]            \n","__________________________________________________________________________________________________\n","add_4 (Add)                     (None, 5, 5, 728)    0           block6_sepconv3_bn[0][0]         \n","                                                                 add_3[0][0]                      \n","__________________________________________________________________________________________________\n","block7_sepconv1_act (Activation (None, 5, 5, 728)    0           add_4[0][0]                      \n","__________________________________________________________________________________________________\n","block7_sepconv1 (SeparableConv2 (None, 5, 5, 728)    536536      block7_sepconv1_act[0][0]        \n","__________________________________________________________________________________________________\n","block7_sepconv1_bn (BatchNormal (None, 5, 5, 728)    2912        block7_sepconv1[0][0]            \n","__________________________________________________________________________________________________\n","block7_sepconv2_act (Activation (None, 5, 5, 728)    0           block7_sepconv1_bn[0][0]         \n","__________________________________________________________________________________________________\n","block7_sepconv2 (SeparableConv2 (None, 5, 5, 728)    536536      block7_sepconv2_act[0][0]        \n","__________________________________________________________________________________________________\n","block7_sepconv2_bn (BatchNormal (None, 5, 5, 728)    2912        block7_sepconv2[0][0]            \n","__________________________________________________________________________________________________\n","block7_sepconv3_act (Activation (None, 5, 5, 728)    0           block7_sepconv2_bn[0][0]         \n","__________________________________________________________________________________________________\n","block7_sepconv3 (SeparableConv2 (None, 5, 5, 728)    536536      block7_sepconv3_act[0][0]        \n","__________________________________________________________________________________________________\n","block7_sepconv3_bn (BatchNormal (None, 5, 5, 728)    2912        block7_sepconv3[0][0]            \n","__________________________________________________________________________________________________\n","add_5 (Add)                     (None, 5, 5, 728)    0           block7_sepconv3_bn[0][0]         \n","                                                                 add_4[0][0]                      \n","__________________________________________________________________________________________________\n","block8_sepconv1_act (Activation (None, 5, 5, 728)    0           add_5[0][0]                      \n","__________________________________________________________________________________________________\n","block8_sepconv1 (SeparableConv2 (None, 5, 5, 728)    536536      block8_sepconv1_act[0][0]        \n","__________________________________________________________________________________________________\n","block8_sepconv1_bn (BatchNormal (None, 5, 5, 728)    2912        block8_sepconv1[0][0]            \n","__________________________________________________________________________________________________\n","block8_sepconv2_act (Activation (None, 5, 5, 728)    0           block8_sepconv1_bn[0][0]         \n","__________________________________________________________________________________________________\n","block8_sepconv2 (SeparableConv2 (None, 5, 5, 728)    536536      block8_sepconv2_act[0][0]        \n","__________________________________________________________________________________________________\n","block8_sepconv2_bn (BatchNormal (None, 5, 5, 728)    2912        block8_sepconv2[0][0]            \n","__________________________________________________________________________________________________\n","block8_sepconv3_act (Activation (None, 5, 5, 728)    0           block8_sepconv2_bn[0][0]         \n","__________________________________________________________________________________________________\n","block8_sepconv3 (SeparableConv2 (None, 5, 5, 728)    536536      block8_sepconv3_act[0][0]        \n","__________________________________________________________________________________________________\n","block8_sepconv3_bn (BatchNormal (None, 5, 5, 728)    2912        block8_sepconv3[0][0]            \n","__________________________________________________________________________________________________\n","add_6 (Add)                     (None, 5, 5, 728)    0           block8_sepconv3_bn[0][0]         \n","                                                                 add_5[0][0]                      \n","__________________________________________________________________________________________________\n","block9_sepconv1_act (Activation (None, 5, 5, 728)    0           add_6[0][0]                      \n","__________________________________________________________________________________________________\n","block9_sepconv1 (SeparableConv2 (None, 5, 5, 728)    536536      block9_sepconv1_act[0][0]        \n","__________________________________________________________________________________________________\n","block9_sepconv1_bn (BatchNormal (None, 5, 5, 728)    2912        block9_sepconv1[0][0]            \n","__________________________________________________________________________________________________\n","block9_sepconv2_act (Activation (None, 5, 5, 728)    0           block9_sepconv1_bn[0][0]         \n","__________________________________________________________________________________________________\n","block9_sepconv2 (SeparableConv2 (None, 5, 5, 728)    536536      block9_sepconv2_act[0][0]        \n","__________________________________________________________________________________________________\n","block9_sepconv2_bn (BatchNormal (None, 5, 5, 728)    2912        block9_sepconv2[0][0]            \n","__________________________________________________________________________________________________\n","block9_sepconv3_act (Activation (None, 5, 5, 728)    0           block9_sepconv2_bn[0][0]         \n","__________________________________________________________________________________________________\n","block9_sepconv3 (SeparableConv2 (None, 5, 5, 728)    536536      block9_sepconv3_act[0][0]        \n","__________________________________________________________________________________________________\n","block9_sepconv3_bn (BatchNormal (None, 5, 5, 728)    2912        block9_sepconv3[0][0]            \n","__________________________________________________________________________________________________\n","add_7 (Add)                     (None, 5, 5, 728)    0           block9_sepconv3_bn[0][0]         \n","                                                                 add_6[0][0]                      \n","__________________________________________________________________________________________________\n","block10_sepconv1_act (Activatio (None, 5, 5, 728)    0           add_7[0][0]                      \n","__________________________________________________________________________________________________\n","block10_sepconv1 (SeparableConv (None, 5, 5, 728)    536536      block10_sepconv1_act[0][0]       \n","__________________________________________________________________________________________________\n","block10_sepconv1_bn (BatchNorma (None, 5, 5, 728)    2912        block10_sepconv1[0][0]           \n","__________________________________________________________________________________________________\n","block10_sepconv2_act (Activatio (None, 5, 5, 728)    0           block10_sepconv1_bn[0][0]        \n","__________________________________________________________________________________________________\n","block10_sepconv2 (SeparableConv (None, 5, 5, 728)    536536      block10_sepconv2_act[0][0]       \n","__________________________________________________________________________________________________\n","block10_sepconv2_bn (BatchNorma (None, 5, 5, 728)    2912        block10_sepconv2[0][0]           \n","__________________________________________________________________________________________________\n","block10_sepconv3_act (Activatio (None, 5, 5, 728)    0           block10_sepconv2_bn[0][0]        \n","__________________________________________________________________________________________________\n","block10_sepconv3 (SeparableConv (None, 5, 5, 728)    536536      block10_sepconv3_act[0][0]       \n","__________________________________________________________________________________________________\n","block10_sepconv3_bn (BatchNorma (None, 5, 5, 728)    2912        block10_sepconv3[0][0]           \n","__________________________________________________________________________________________________\n","add_8 (Add)                     (None, 5, 5, 728)    0           block10_sepconv3_bn[0][0]        \n","                                                                 add_7[0][0]                      \n","__________________________________________________________________________________________________\n","block11_sepconv1_act (Activatio (None, 5, 5, 728)    0           add_8[0][0]                      \n","__________________________________________________________________________________________________\n","block11_sepconv1 (SeparableConv (None, 5, 5, 728)    536536      block11_sepconv1_act[0][0]       \n","__________________________________________________________________________________________________\n","block11_sepconv1_bn (BatchNorma (None, 5, 5, 728)    2912        block11_sepconv1[0][0]           \n","__________________________________________________________________________________________________\n","block11_sepconv2_act (Activatio (None, 5, 5, 728)    0           block11_sepconv1_bn[0][0]        \n","__________________________________________________________________________________________________\n","block11_sepconv2 (SeparableConv (None, 5, 5, 728)    536536      block11_sepconv2_act[0][0]       \n","__________________________________________________________________________________________________\n","block11_sepconv2_bn (BatchNorma (None, 5, 5, 728)    2912        block11_sepconv2[0][0]           \n","__________________________________________________________________________________________________\n","block11_sepconv3_act (Activatio (None, 5, 5, 728)    0           block11_sepconv2_bn[0][0]        \n","__________________________________________________________________________________________________\n","block11_sepconv3 (SeparableConv (None, 5, 5, 728)    536536      block11_sepconv3_act[0][0]       \n","__________________________________________________________________________________________________\n","block11_sepconv3_bn (BatchNorma (None, 5, 5, 728)    2912        block11_sepconv3[0][0]           \n","__________________________________________________________________________________________________\n","add_9 (Add)                     (None, 5, 5, 728)    0           block11_sepconv3_bn[0][0]        \n","                                                                 add_8[0][0]                      \n","__________________________________________________________________________________________________\n","block12_sepconv1_act (Activatio (None, 5, 5, 728)    0           add_9[0][0]                      \n","__________________________________________________________________________________________________\n","block12_sepconv1 (SeparableConv (None, 5, 5, 728)    536536      block12_sepconv1_act[0][0]       \n","__________________________________________________________________________________________________\n","block12_sepconv1_bn (BatchNorma (None, 5, 5, 728)    2912        block12_sepconv1[0][0]           \n","__________________________________________________________________________________________________\n","block12_sepconv2_act (Activatio (None, 5, 5, 728)    0           block12_sepconv1_bn[0][0]        \n","__________________________________________________________________________________________________\n","block12_sepconv2 (SeparableConv (None, 5, 5, 728)    536536      block12_sepconv2_act[0][0]       \n","__________________________________________________________________________________________________\n","block12_sepconv2_bn (BatchNorma (None, 5, 5, 728)    2912        block12_sepconv2[0][0]           \n","__________________________________________________________________________________________________\n","block12_sepconv3_act (Activatio (None, 5, 5, 728)    0           block12_sepconv2_bn[0][0]        \n","__________________________________________________________________________________________________\n","block12_sepconv3 (SeparableConv (None, 5, 5, 728)    536536      block12_sepconv3_act[0][0]       \n","__________________________________________________________________________________________________\n","block12_sepconv3_bn (BatchNorma (None, 5, 5, 728)    2912        block12_sepconv3[0][0]           \n","__________________________________________________________________________________________________\n","add_10 (Add)                    (None, 5, 5, 728)    0           block12_sepconv3_bn[0][0]        \n","                                                                 add_9[0][0]                      \n","__________________________________________________________________________________________________\n","block13_sepconv1_act (Activatio (None, 5, 5, 728)    0           add_10[0][0]                     \n","__________________________________________________________________________________________________\n","block13_sepconv1 (SeparableConv (None, 5, 5, 728)    536536      block13_sepconv1_act[0][0]       \n","__________________________________________________________________________________________________\n","block13_sepconv1_bn (BatchNorma (None, 5, 5, 728)    2912        block13_sepconv1[0][0]           \n","__________________________________________________________________________________________________\n","block13_sepconv2_act (Activatio (None, 5, 5, 728)    0           block13_sepconv1_bn[0][0]        \n","__________________________________________________________________________________________________\n","block13_sepconv2 (SeparableConv (None, 5, 5, 1024)   752024      block13_sepconv2_act[0][0]       \n","__________________________________________________________________________________________________\n","block13_sepconv2_bn (BatchNorma (None, 5, 5, 1024)   4096        block13_sepconv2[0][0]           \n","__________________________________________________________________________________________________\n","conv2d_3 (Conv2D)               (None, 3, 3, 1024)   745472      add_10[0][0]                     \n","__________________________________________________________________________________________________\n","block13_pool (MaxPooling2D)     (None, 3, 3, 1024)   0           block13_sepconv2_bn[0][0]        \n","__________________________________________________________________________________________________\n","batch_normalization_3 (BatchNor (None, 3, 3, 1024)   4096        conv2d_3[0][0]                   \n","__________________________________________________________________________________________________\n","add_11 (Add)                    (None, 3, 3, 1024)   0           block13_pool[0][0]               \n","                                                                 batch_normalization_3[0][0]      \n","__________________________________________________________________________________________________\n","block14_sepconv1 (SeparableConv (None, 3, 3, 1536)   1582080     add_11[0][0]                     \n","__________________________________________________________________________________________________\n","block14_sepconv1_bn (BatchNorma (None, 3, 3, 1536)   6144        block14_sepconv1[0][0]           \n","__________________________________________________________________________________________________\n","block14_sepconv1_act (Activatio (None, 3, 3, 1536)   0           block14_sepconv1_bn[0][0]        \n","__________________________________________________________________________________________________\n","block14_sepconv2 (SeparableConv (None, 3, 3, 2048)   3159552     block14_sepconv1_act[0][0]       \n","__________________________________________________________________________________________________\n","block14_sepconv2_bn (BatchNorma (None, 3, 3, 2048)   8192        block14_sepconv2[0][0]           \n","__________________________________________________________________________________________________\n","block14_sepconv2_act (Activatio (None, 3, 3, 2048)   0           block14_sepconv2_bn[0][0]        \n","__________________________________________________________________________________________________\n","global_average_pooling2d (Globa (None, 2048)         0           block14_sepconv2_act[0][0]       \n","__________________________________________________________________________________________________\n","dense (Dense)                   (None, 10)           20490       global_average_pooling2d[0][0]   \n","==================================================================================================\n","Total params: 20,881,970\n","Trainable params: 20,827,442\n","Non-trainable params: 54,528\n","__________________________________________________________________________________________________\n"],"name":"stdout"}]},{"cell_type":"markdown","metadata":
…
